Machine-Learning-for-IoT/Homework 2/model11.tflite (tflite, 41992 bytes, 24 tensors)

dense_44/MatMul f4 [2, 64]
000000 97 ef 2f be 88 68 29 3e 0c 26 d9 3e 9f 9d 9a 3e
       -0.1718124 0.16543782 0.4241184 0.3019838
000010 53 c4 e5 3d 4e 75 91 3e 7a f2 96 be 4d 15 ba 3e
       0.112190865 0.2840981 -0.2948187 0.36344376
000020 85 79 00 3f 6d 2a 66 be 25 a0 7d be 6a a3 0e bf
       0.50185424 -0.22477122 -0.24768122 -0.557181
000030 e7 e2 ae be cc b5 aa be fe e0 9c 3e 6c 2d 97 be
       -0.34157488 -0.33341825 0.30640405 -0.29526842
000040 f4 d3 1d 3f f8 da 72 be 35 4c fe be 4c 87 8b be
       0.6165154 -0.23716342 -0.49667516 -0.2725166
000050 55 4a d9 3d 9c be 6e be 8b 3e 1a be 5e d1 75 3e
       0.10609881 -0.23314899 -0.15062921 0.24005648
000060 2c 3f eb be e9 2d e0 3e 89 16 01 bf a0 0c c7 3e
       -0.45946634 0.43785027 -0.5042501 0.3887682
000070 ae 35 96 bd 2b b0 c8 3e a1 a0 68 3e b8 ce 88 3e
       -0.07334457 0.39196905 0.22717525 0.26720214
000080 10 c8 ca 3e 27 61 ab be a8 5a aa 3e 3a 0c 1f bf
       0.3960576 -0.3347256 0.3327229 -0.6212803
000090 b8 32 86 3d d3 03 1d 3e 3e b1 8f 3e 67 3d 0e bf
       0.065526426 0.1533349 0.28064913 -0.5556244
0000a0 d9 e4 fc 3d eb 96 0e bf 80 f2 61 3e 5f 84 e7 be
       0.12348337 -0.5569903 0.22065163 -0.4521818
0000b0 a2 1a 9b bc 88 9c e0 be a9 2c bb be 2d ec 0d 3f
       -0.018933598 -0.43869424 -0.3655751 0.554385
0000c0 ff 1e c0 3e 83 25 16 3e e2 72 d6 be 6e 03 8b 3d
       0.37523648 0.14662747 -0.41884524 0.067877635
0000d0 4c 25 00 bf ed e1 fb 3d 6b cc 4f be 0f 9c bf 3e
       -0.5005691 0.12298951 -0.20292823 0.3742375
0000e0 57 48 12 3e 95 27 98 be fb c1 c5 be c1 81 2c 3f
       0.14285408 -0.297177 -0.38624558 0.6738549
0000f0 97 f0 6a 3e cc 58 80 3e f9 f5 c4 3e 7c 99 00 bf
       0.2294334 0.25067747 0.38468912 -0.502342
000100 20 7a de 3d 28 ee ca be 9f 20 c7 be d1 5c 0b bf
       0.10863137 -0.39634824 -0.38892075 -0.544385
000110 e4 ca ed 3d 2d 52 fe be 33 72 9a 3e 95 6d be be
       0.11610964 -0.4967207 0.30165252 -0.3719298
000120 35 80 47 be 9b 46 b3 bd ad 29 d5 3e 16 b2 be 3e
       -0.19482501 -0.08753701 0.4163336 0.37245244
000130 c2 17 6b 3e 5e b4 1f 3f d7 7a 0f bf 79 87 67 3e
       0.22958282 0.62384593 -0.56046814 0.22610272
000140 12 18 0f bf 5d a9 20 bd 25 fb 46 3e dd f4 be 3e
       -0.55896103 -0.039224017 0.19431742 0.3729619
000150 7a 19 ea bd 11 0b c6 3e f1 32 ce 3e 6d 2b 32 3e
       -0.114306405 0.38680318 0.4027324 0.17399378
000160 f5 cc f6 3e d9 f3 00 bf e9 ce ed 3e e1 a5 0f bd
       0.48203245 -0.5037208 0.46446922 -0.035070304
000170 7b de 67 be 26 90 02 3e e0 f7 b8 be 27 96 da be
       -0.22643463 0.12750301 -0.36126614 -0.42692682
000180 1c 7c 9b 3d 9e 99 19 3f 61 c1 97 be d1 f9 c1 3e
       0.07592031 0.60000026 -0.29639724 0.37885907
000190 3c 3e 1e 3d fa c7 08 3e 50 9d d3 bd c2 43 0c 3f
       0.03863357 0.13357535 -0.10332739 0.5479089
0001a0 f3 c0 5c be 68 94 0b 3f 4c a6 10 bf 65 24 e7 3d
       -0.2155798 0.54523325 -0.5650375 0.112862386
0001b0 95 e0 2a 3e 53 9f 06 3f dd dc 2f 3e 29 98 d9 be
       0.16687234 0.5258686 0.17174096 -0.424989
0001c0 71 dd 00 bf c7 78 16 bf c0 96 f9 3d 2a eb a6 be
       -0.5033789 -0.5877804 0.121869564 -0.3260129
0001d0 fb d9 0a 3f fd 28 e0 be 33 01 82 be e6 17 14 bf
       0.5423886 -0.43781272 -0.2539154 -0.57848966
0001e0 14 af ed be 8e 81 cd 3e ed 17 8c bd fd 28 29 bf
       -0.46422637 0.40137905 -0.06840501 -0.6607817
0001f0 c4 d3 dd be a3 71 88 3e 63 57 fe be 33 9d 6d 3e
       -0.43325627 0.26649198 -0.49676046 0.23204498

sep_res_block_89/batch_normalization_179/FusedBatchNormV3 f4 [64]
000000 9b ec 0c bf f5 08 9a be 61 98 f3 be 56 71 a4 be
       -0.5504853 -0.3008496 -0.47577193 -0.32117718
000010 a9 cf 00 bd cb 16 cc be de b6 ad be d0 2b ac be
       -0.03144804 -0.3986114 -0.3392858 -0.33627176
000020 8d 29 bd be dd 87 cc be 6b dc fa be 71 70 0b bf
       -0.36945763 -0.39947405 -0.4899629 -0.54468447
000030 f5 9a c4 be b5 41 07 bf 3a 13 c0 be 41 9a a0 be
       -0.38399473 -0.52834636 -0.3751467 -0.31367686
000040 8f 5c c4 be 24 9a 65 be 8b d5 bd be ba 9e 49 bf
       -0.38351867 -0.22422081 -0.37076983 -0.7875782
000050 cb 7b 53 bf 30 9f b9 be 71 74 b1 be 7a 00 1f bd
       -0.8261077 -0.36254263 -0.3465915 -0.038818814
000060 10 10 de be 2a dc c8 be 32 31 00 bf bf dd af be
       -0.4337163 -0.39230472 -0.50075066 -0.34348866
000070 3c 56 43 be 9b 07 43 be 31 6d 91 be d1 2a 9c be
       -0.19075865 -0.1904587 -0.2840362 -0.30501416
000080 a5 02 5f be 22 e2 f1 be dc 50 83 be dd 15 06 bf
       -0.21778353 -0.47242838 -0.25647628 -0.5237711
000090 96 4a 1c be 80 cf c7 bd 96 80 bb be f0 e5 be be
       -0.15262827 -0.09756374 -0.3662154 -0.37284803
0000a0 55 c0 4f be 52 12 eb be 58 87 cf be 5c 8f c1 be
       -0.20288213 -0.45912415 -0.40532947 -0.37804687
0000b0 c3 87 71 be cc 82 d9 be ad ce cf be c5 9d df be
       -0.23586945 -0.42482603 -0.4058737 -0.43675056
0000c0 34 72 de be 60 67 e5 be b4 73 04 bf 10 12 a4 be
       -0.43446505 -0.4480543 -0.5173905 -0.3204503
0000d0 74 a8 f7 be ff 90 a8 be 00 65 87 be 96 38 c5 be
       -0.48370707 -0.32923123 -0.26444244 -0.38519734
0000e0 02 f0 ac be 6d 1b 0d bf 72 40 9d be 76 fa fe be
       -0.3377686 -0.55119973 -0.3071323 -0.49800462
0000f0 74 d0 b7 be d8 b8 fd bc 0c 1a bb be fc f2 ce be
       -0.35901225 -0.03097193 -0.3654331 -0.40419757

sep_res_block_89/batch_normalization_179/FusedBatchNormV31 f4 [64]
000000 e9 1d 7a 3e 5c 15 1f 3e db e5 7f 3e 13 08 83 3e
       0.24425472 0.15535492 0.24990027 0.25592098
000010 90 3d 58 3d c2 6a 46 3e d2 d1 a2 3e 10 0c 53 3e
       0.052793086 0.19376662 0.31800705 0.2061007
000020 99 1a 75 3e f4 13 71 3e 73 6c 9d 3e 4b 5d b0 3e
       0.23935927 0.23542768 0.30746803 0.34446177
000030 07 3a 9f 3e 99 62 cf 3e ab 40 42 3e d0 a6 a6 3e
       0.3109896 0.40504912 0.18969981 0.32549143
000040 73 37 5e 3e 4c df 4f 3e d9 87 de 3e 3b b9 94 3e
       0.2170084 0.20300025 0.4346302 0.2904757
000050 90 be 94 3e b4 71 bc 3e b2 06 d5 3e 90 a6 9a 3d
       0.29051638 0.368055 0.4160667 0.075513005
000060 65 96 b2 3e 74 d6 70 3e 57 87 ed 3e 8a b0 47 3e
       0.34880367 0.23519307 0.4639232 0.19500938
000070 06 0b 39 3e e2 aa 2c 3e 57 d9 5e 3e ca 05 85 3e
       0.18070611 0.16862062 0.21762596 0.2598098
000080 d0 24 36 3e a1 b4 8d 3e e6 16 74 3e 42 76 ed 3e
       0.1778748 0.2767687 0.2383686 0.46379286
000090 f5 f1 e7 3e c5 af 98 3e 0d c3 57 3e c0 51 f1 3e
       0.45301786 0.29821602 0.210705 0.47132683
0000a0 23 33 59 3e 48 b7 d3 3e 82 6b 51 3e 9a fb 97 3e
       0.21210913 0.4135077 0.20451167 0.29684144
0000b0 bf 6f 81 3e 61 73 eb 3e 56 87 b1 3e 9c 0d 71 3e
       0.25280568 0.45986465 0.34673566 0.23540348
0000c0 ff 60 89 3e c9 62 8d 3e ff 53 9a 3e 52 7d 76 3e
       0.26831815 0.2761443 0.3014221 0.24071243
0000d0 bd 56 e8 3e 50 77 5a 3e 92 42 03 3f 70 41 44 3e
       0.45378676 0.21334577 0.51273453 0.19165587
0000e0 a0 7a 59 3e 2f 81 c6 3e f9 ec e7 3e 7e bc 78 3e
       0.21238184 0.38770434 0.45297983 0.24290654
0000f0 a0 57 4e 3e 3c 3e a2 3d d2 09 79 3e 73 d1 de 3e
       0.20150614 0.079220265 0.24320152 0.43519172

sep_res_block_89/sep_conv_relu_bn_178/batch_normalization_178/FusedBatchNormV3 f4 [64]
000000 32 81 2a bf a9 06 93 bf b4 19 dd be 58 b5 0f bf
       -0.66603386 -1.1486408 -0.43183672 -0.56136084
000010 6a 74 07 bf 0f e4 3e bf 5d 09 1f bf bc c9 1e bf
       -0.5291201 -0.7456674 -0.6212366 -0.6202657
000020 cc 15 98 be 11 56 1f bf fc 42 f1 be fd 38 26 bf
       -0.2970413 -0.622407 -0.47121418 -0.6493071
000030 7a 64 01 be e2 1b 52 bf 84 63 0e be 4a 32 79 be
       -0.12635985 -0.82073796 -0.1390515 -0.2433559
000040 40 59 f3 be 88 1f 1b bf 36 68 19 bf 56 6a b0 be
       -0.4752903 -0.6059499 -0.5992464 -0.34456128
000050 61 53 5f bf e3 26 16 bf 68 4f e0 be c7 ee f0 be
       -0.872366 -0.58653086 -0.43810582 -0.47057173
000060 f3 2e 04 bf a5 37 18 bf 58 7d 74 be 60 5a f9 be
       -0.5163414 -0.59459907 -0.2387594 -0.48701763
000070 f4 85 9c bd 60 5d 95 3c 85 03 62 be 28 70 69 be
       -0.07642737 0.018233001 -0.22071655 -0.2279669
000080 2e e9 17 bf 5e 99 ba be d9 93 10 bf 56 fc 65 be
       -0.5934018 -0.36445135 -0.564756 -0.2245954
000090 8e 27 a6 be d3 bb fc be 8c aa bb be 2e 5b 7e be
       -0.32452053 -0.49362049 -0.36653554 -0.2483947
0000a0 1f 61 11 bf 9e f4 04 bf 50 99 e4 be 9e 54 3f be
       -0.5678882 -0.51935756 -0.44648218 -0.18684623
0000b0 68 ef 0a 3d 95 de 08 bf d6 21 19 be e8 cb 94 be
       0.03391972 -0.53464633 -0.14954314 -0.29061818
0000c0 c6 69 7b bf 66 c2 8f be 72 0c 94 be a0 df bf be
       -0.9820827 -0.28078002 -0.28915745 -0.374753
0000d0 46 b3 00 bf cf 23 03 bf b7 0c 89 be bc 71 ae be
       -0.5027355 -0.51226515 -0.26767513 -0.34071147
0000e0 0c 78 2e bf 5c 01 fe bd 56 9d 99 be 84 c5 7f be
       -0.68151927 -0.12402603 -0.3000285 -0.2497769
0000f0 2a 8b c6 be 7f cb 2e bf 5e 3d 4e be 1a e8 0b bf
       -0.3877805 -0.6827926 -0.20140597 -0.54651034

sep_res_block_89/sep_conv_relu_bn_178/batch_normalization_178/FusedBatchNormV31 f4 [64]
000000 22 1a 92 3f 06 64 a8 3f 39 09 76 3f 22 7e 93 3f
       1.1414225 1.3155525 0.9610782 1.1522868
000010 18 3a 52 3f ba 3e ba 3f de 1a c9 3f 23 98 96 3f
       0.82119894 1.4550393 1.5711324 1.1765178
000020 5f d9 92 3f 2c ee cc 3f d8 7e 7d 3f b5 37 4f 3f
       1.1472586 1.6010184 0.99021673 0.8094438
000030 9c f7 7c 3f ff 65 69 3f b9 c2 dc 3e 8f 6d 70 3f
       0.9881532 0.9117126 0.43117312 0.93917173
000040 5c 1f 63 3f 3c 7b 92 3f 22 7b 91 3f 20 14 7e 3f
       0.88719726 1.1443858 1.1365702 0.9924946
000050 5c 87 7a 3f a8 f4 4b 3f 84 0c 2d 3f 8f 03 a2 3f
       0.9786279 0.7967019 0.6759722 1.2657336
000060 ad fa 85 3f a3 37 58 3f bc 82 35 3f 1f 67 94 3f
       1.0467125 0.84459895 0.7090261 1.159397
000070 4d c6 8a 3f 17 dd 94 3e 6f 65 3a 3f cb 67 50 3f
       1.0841767 0.29074928 0.72811025 0.81408376
000080 f4 6e c9 3f e7 9d b3 3f f7 a6 86 3f 15 38 bb 3f
       1.5736985 1.4032563 1.0519704 1.462649
000090 14 08 45 3f 7b b2 9b 3f 5f 68 db 3f 66 25 49 3f
       0.7696545 1.2163843 1.7141227 0.7857269
0000a0 7a 0d 96 3f ac 4a 9e 3f 6e f3 21 3f 99 42 81 3f
       1.1722863 1.2366538 0.6326207 1.0098449
0000b0 9e 9a 5b 3f 50 16 41 3f 19 97 88 3e a5 49 49 3f
       0.857828 0.7542467 0.26677778 0.78628
0000c0 07 e6 c3 3f 1c 95 0c 3f eb 55 21 3f 9d bc d7 3f
       1.5304574 0.5491502 0.63021725 1.6854435
0000d0 19 52 84 3f 80 a4 4a 3f 6c d3 55 3f 0e 19 80 3f
       1.0337554 0.7915726 0.8352573 1.0007646
0000e0 6e c8 84 3f 2a fe b3 3e 6e 8c 99 3f 02 58 2d 3f
       1.0373666 0.3515485 1.1995981 0.67712414
0000f0 cd 92 85 3f 6a 08 a9 3f c0 c4 27 3f 12 b6 3a 3f
       1.0435425 1.3205693 0.6553459 0.7293407

sep_res_block_88/batch_normalization_177/FusedBatchNormV3 f4 [64]
000000 68 35 91 be ce c3 08 bf e0 e5 35 bc cd 65 4d bf
       -0.28361058 -0.53423774 -0.01110217 -0.8023346
000010 60 3f bb bd 29 09 a6 be 21 fc 07 be ea 81 db bd
       -0.09142947 -0.32428864 -0.13279773 -0.107181385
000020 e2 05 86 bd cd 8d ea bd 0c b9 0f bf c8 95 97 bc
       -0.06544091 -0.114528276 -0.56141734 -0.018504038
000030 a8 cd 57 bf 69 bc 5d be 69 50 23 bd c5 94 31 be
       -0.8429818 -0.21653904 -0.039871607 -0.17341907
000040 58 a7 c5 bd 6c 88 b0 3d 27 53 74 be 80 9a 32 bf
       -0.09651059 0.086197704 -0.23859845 -0.69767
000050 ca b5 3a bd 57 ff b0 bd 66 cd 8d bc 4e 8c 2b bf
       -0.045583524 -0.08642452 -0.017309856 -0.6701096
000060 2e 9b 20 bf d3 2f b6 3d fa 21 f6 bd e2 17 25 be
       -0.62736785 0.088958405 -0.12018199 -0.16122392
000070 48 1e 32 3d 3e 08 84 3d f6 85 1b be aa b1 88 bf
       0.04348591 0.064468846 -0.15187821 -1.0679219
000080 f0 48 87 3e e8 69 29 bf c4 77 b1 be b0 6a e6 3c
       0.26422834 -0.66177225 -0.34661686 0.028127044
000090 dc 7e ad be 90 62 27 bc 30 da e4 3d c6 b0 e5 be
       -0.3388585 -0.01021637 0.111744285 -0.4486143
0000a0 23 c0 86 3d 60 78 78 bc 0d 4f 1b bf 16 fa 07 bf
       0.06579616 -0.015165418 -0.60667497 -0.53115976
0000b0 c8 d4 7c bf cc 4c 95 be 28 ac eb be 9f 98 00 bf
       -0.9876218 -0.29160154 -0.46029782 -0.5023288
0000c0 04 46 45 be a4 60 8c bd 6c 77 a9 3d 6c 27 2e be
       -0.1926499 -0.0685437 0.08274731 -0.17007226
0000d0 de b1 cd bd 57 c3 84 be 5e 50 05 3e 60 68 e4 be
       -0.10043691 -0.25930282 0.13018939 -0.44610882
0000e0 00 4c f9 3b 4f 3e dd be 60 f2 80 be 80 af 01 3c
       0.007607937 -0.432116 -0.25184917 0.007915378
0000f0 28 ca c5 bd d9 aa 1a bd 09 e2 31 bf fd 07 ba be
       -0.09657699 -0.03776059 -0.6948553 -0.3633422

sep_res_block_88/batch_normalization_177/FusedBatchNormV31 f4 [64]
000000 a1 fe 57 3e 6d 93 c8 3e 44 52 96 3e 11 db 91 3e
       0.21093227 0.39174977 0.2935964 0.28487447
000010 8c 86 16 3e 60 bb c2 3e f7 07 e8 3e 95 7f 81 3e
       0.14699763 0.3803358 0.45318577 0.2529265
000020 7f 79 e4 3e 96 45 32 3e 76 3e dd 3e f3 56 e5 3e
       0.44623944 0.17409357 0.43211716 0.447929
000030 cc 2d a6 3e e7 7b 3c 3e d1 66 ca 3d cc 99 40 3e
       0.32456815 0.1840664 0.09882892 0.18808669
000040 4d 02 93 3d f9 98 9e 3e 11 4f 86 3e 74 7b 14 3f
       0.07178173 0.30976084 0.26232198 0.58000875
000050 9c 11 03 3e 41 a9 53 3e 97 69 86 3e 5b 82 30 3f
       0.12799686 0.20670034 0.26252434 0.68948907
000060 f7 1a e0 3e 00 f5 1d 3e 18 81 9b 3d 62 e1 2f 3e
       0.43770573 0.15425491 0.07592982 0.1717582
000070 fb 99 a9 3e 15 95 3d 3e 9d 6c 8b 3e fe f8 e9 3e
       0.3312529 0.18513902 0.27231303 0.45697778
000080 5a 45 8e 3e e0 c3 90 3e f2 17 85 3e 2e 4b 74 3e
       0.27787286 0.2827444 0.2599483 0.23856804
000090 b7 6c e2 3e 1c 0e 5f 3e 68 fc 80 3e d2 db 8a 3e
       0.44223568 0.21782726 0.2519257 0.27120835
0000a0 59 d1 e8 3d 2d 1d 19 3e 21 0b bc 3e 20 59 f7 3e
       0.11368055 0.14952536 0.3672724 0.48310184
0000b0 22 dc 06 3f 2f 86 16 3e d0 ed ce 3e 49 61 e0 3e
       0.52679646 0.14699624 0.40415812 0.43824223
0000c0 4e 46 88 3e 1a 65 1e 3e b9 82 a3 3e 2a 43 8c 3e
       0.26616138 0.15468255 0.3193567 0.27394992
0000d0 2f c8 b3 3e 1f 57 9b 3e 9c a7 17 3e 86 d1 02 3f
       0.35113665 0.30339906 0.14810032 0.5110096
0000e0 14 f7 40 3e 82 e6 7e 3e 2e df 1a 3e 7a 35 a0 3e
       0.18844253 0.24892619 0.15124199 0.312908
0000f0 7e 8d fb 3d 8e 78 82 3e 0d 91 d2 3e 66 f3 ca 3e
       0.12282847 0.254826 0.4112629 0.39638823

sep_res_block_88/sep_conv_relu_bn_176/batch_normalization_176/FusedBatchNormV3 f4 [64]
000000 d0 82 43 bf 14 89 66 be ea 2c 10 3e 26 4d 66 bf
       -0.7637148 -0.22513229 0.14079633 -0.8996147
000010 a1 80 2c bf 78 eb 5a bf 86 5e 62 bd 54 01 10 bf
       -0.6738377 -0.85515547 -0.055265926 -0.56252027
000020 ac 52 93 be 10 be c2 bd 75 38 33 bf 4a 31 94 be
       -0.2877401 -0.09508908 -0.7000802 -0.28943855
000030 03 8a 5b bf e4 3d 15 be 26 76 d3 bd 32 e1 8e be
       -0.85757464 -0.1457439 -0.103252694 -0.27906185
000040 a5 31 93 be aa 17 6c bf 5e 27 af 3d 8e 18 2f bf
       -0.28748813 -0.9222361 0.085524306 -0.6839684
000050 5c ab 91 bf e4 a1 b0 be 1e eb 37 bf 48 e7 18 bf
       -1.138042 -0.34498513 -0.71843135 -0.5972791
000060 e1 27 50 bf 70 f7 14 be 1a ff 1d bf 23 0a 83 bf
       -0.8131085 -0.14547515 -0.6171738 -1.0237468
000070 98 3f 78 3d fc dd 8b bf ce b0 18 be bc ac 46 bf
       0.060607523 -1.0927119 -0.14911196 -0.7760732
000080 56 bb 4d be 86 41 13 bf 1f 88 63 bf 3e aa 5f bf
       -0.20090994 -0.57521856 -0.8887958 -0.87369144
000090 70 e9 f2 be dc 42 50 be d5 85 ba be 22 38 22 bf
       -0.47443724 -0.20338005 -0.3643023 -0.633669
0000a0 e0 07 db 3c 39 8b ec be d0 99 77 be e5 07 b1 be
       0.026737154 -0.46199968 -0.24179769 -0.34576336
0000b0 94 dc b3 be 36 5f 08 be a0 02 7a bd 0f 8b 01 bf
       -0.35129225 -0.1331757 -0.06103766 -0.5060281
0000c0 74 70 f9 be 9c c2 ac bd 80 8b aa bb 0b c6 10 bf
       -0.48718607 -0.08435556 -0.005204618 -0.5655219
0000d0 51 7d 02 bf 7b 83 92 be 06 ab 4b bf d4 2d 55 bf
       -0.5097247 -0.28615937 -0.79557836 -0.83273053
0000e0 fe 23 38 be a2 25 9b be a8 a2 d1 bc 11 10 0d bf
       -0.1798248 -0.3030215 -0.025590256 -0.5510264
0000f0 a0 cd 3e 3d ca c7 69 bf fd ab d3 be 16 0d a9 be
       0.046582818 -0.9132048 -0.41342154 -0.33017796

sep_res_block_88/sep_conv_relu_bn_176/batch_normalization_176/FusedBatchNormV31 f4 [64]
000000 c1 92 b3 3e 4e ec d5 3e 86 f7 67 3e bf 48 fb 3e
       0.35072902 0.4178185 0.22653016 0.49078938
000010 9f 35 b5 3e 71 77 06 3f c3 d2 33 3f 96 68 a5 3e
       0.35392472 0.52526003 0.7024347 0.32306355
000020 53 24 18 3f 23 2f c6 3e 33 c5 ae 3e 24 bf ed 3e
       0.59430426 0.38707837 0.34134826 0.4643489
000030 36 55 be 3e b3 c6 64 3f cc f3 8b 3e 1f 28 c8 3e
       0.37174386 0.8936569 0.2733444 0.3909311
000040 02 8b 7b 3e ba e4 e2 3e 75 65 21 3f f5 28 d5 3e
       0.24564746 0.4431513 0.63045436 0.4163281
000050 c2 52 48 3f a5 48 b0 3e 05 8e be 3e 9f 4e 15 3f
       0.7825128 0.34430423 0.37217727 0.5832309
000060 28 2d be 3e 29 74 ba 3e 6c cc f3 3e e2 d7 de 3e
       0.37143826 0.36416748 0.476169 0.4352408
000070 e8 1a 40 3f 71 74 e8 3e a3 ea 34 3f 99 d0 fc 3e
       0.75041056 0.45401338 0.7067053 0.49377897
000080 d3 be af 3e fc 0a 7d 3e f2 67 a7 3e 42 8a 8f 3e
       0.34325275 0.24711221 0.3269649 0.2803517
000090 e3 29 31 3f f0 6f 8e 3e 0c ba 70 3e 55 33 00 3f
       0.6920454 0.27819777 0.23508471 0.50078326
0000a0 5c 9f 2a 3f a1 fe f7 3e 18 ee 60 3e 34 95 ff 3e
       0.66649413 0.48436454 0.21965826 0.4991852
0000b0 38 01 7e 3e 34 74 2b 3f 03 11 90 3e 86 22 48 3f
       0.24805152 0.66974187 0.2813798 0.7817768
0000c0 01 79 06 3f 87 d0 ff 3e a4 f8 71 3f 43 51 b9 3e
       0.5252839 0.4996378 0.9452002 0.3619481
0000d0 9c b3 a4 3e 69 05 b5 3e 97 e6 bd 3e f5 19 01 3f
       0.3216828 0.3535569 0.3708999 0.5043023
0000e0 1e 1e e1 3e cb 34 ef 3e f4 cd ab 3e 6c 99 19 3f
       0.4396829 0.46719965 0.33555567 0.5999973
0000f0 eb 1e e9 3e 36 2f c6 3e 99 f1 06 3f 5e ae 82 3f
       0.455314 0.38707894 0.527124 1.0209463

dense_44/BiasAdd/ReadVariableOp f4 [2]
000000 a7 0a 62 3c 64 0a 62 bc
       0.013796485 -0.013796423

sep_res_block_89/sep_conv_relu_bn_179/separable_conv2d_224/separable_conv2d/depthwise f4 [1, 3, 3, 64]
000000 4f f4 c5 3e a6 78 5c 3f c2 94 5c be cc 89 06 3f
       0.38662955 0.86121595 -0.21541122 0.5255401
000010 aa 33 fa be 7a 76 12 bf 00 01 57 3e a0 f2 ad be
       -0.48867542 -0.5721203 0.20996475 -0.3397417
000020 78 ba fc 3d 41 db f5 be af 17 a4 3e db a2 68 3e
       0.123402536 -0.4801884 0.3204932 0.22718374
000030 ad 57 ee bd 41 dc 0b bf 4f 43 5a be f3 3c 5e bd
       -0.116378166 -0.54632956 -0.21314739 -0.054257344
000040 28 f7 41 3d 92 cd bd bd ea b8 17 3f 4f e6 56 3e
       0.047354847 -0.09267725 0.5926653 0.20986293
000050 1c b1 df be 63 18 cc bc 77 22 b4 be ae 7f b6 be
       -0.4368981 -0.024913972 -0.35182545 -0.35644287
000060 51 ff 74 bf 28 0c a9 be f1 af da 3e 07 9a c3 be
       -0.9570208 -0.33017087 0.42712358 -0.3820345
000070 10 f4 16 3e 5d ac 3d be d1 7f 98 3c a3 73 9b 3d
       0.1474154 -0.18522783 0.018615635 0.07590415
000080 d4 df 5e 3e 26 91 9d bd 8e 1f ee 3e d1 1a aa be
       0.21765071 -0.076937005 0.4650845 -0.33223584
000090 65 11 68 be 80 48 6f 3e 43 08 a9 3b 94 2a d0 bb
       -0.22662885 0.233675 0.0051584556 -0.006352732
0000a0 9b 0c 99 3e 3a d5 83 be 14 b6 2a 3f 76 6e 26 be
       0.2989243 -0.25748616 0.6668408 -0.16253075
0000b0 9d d4 46 3d 58 c2 13 be 50 ff 90 be e0 d4 d5 bc
       0.048542608 -0.14429605 -0.28319788 -0.026102483
0000c0 ee 29 05 be 14 19 08 be 6b 40 5d be a8 05 f7 3d
       -0.13004276 -0.13290817 -0.21606605 0.12061626
0000d0 b3 a5 b2 be de 87 6c bd 12 3b 60 bd 63 b2 86 3c
       -0.34892043 -0.05774676 -0.054743834 0.016442483
0000e0 88 50 03 bf e4 ec ba bd 19 18 72 bd c5 0c 8f be
       -0.51294756 -0.091272146 -0.059105013 -0.2793943
0000f0 0d ff eb 3d 99 18 b0 be e0 54 c1 bd f3 9c c1 3e
       0.115232565 -0.34393767 -0.09440017 0.37815055
000100 4e a3 5a 3d 7a d4 69 3f d3 d1 c5 bd 0c ca 13 3e
       0.053378396 0.9133984 -0.096591614 0.14432544
000110 ae 9d e9 be 11 d0 47 bb 94 2f c6 3e 5e 5a 91 bb
       -0.45628113 -0.0030489007 0.38708174 -0.0044358214
000120 08 ab c9 bc 7c ae 38 be d9 b5 a6 3e e5 55 d9 3b
       -0.024617687 -0.1803531 0.32560614 0.006632554
000130 8f 98 b0 3d 24 fd 16 be 80 a7 c3 bd 71 35 47 be
       0.08622848 -0.14745003 -0.095534325 -0.1945398
000140 dd 02 d0 3d 50 b6 83 3e 92 50 97 3e 17 9f 3b 3e
       0.10156796 0.2572503 0.29553658 0.18322407
000150 23 ca 72 be cc 9c a7 be 09 e9 a6 be d8 74 2c bd
       -0.23709922 -0.32736814 -0.32599667 -0.04210362
000160 b7 b7 d2 be 6e b5 7e be 84 92 ab 3d 2e 16 3e bb
       -0.41155788 -0.24873897 0.08377555 -0.002900492
000170 8d a6 ec bd 94 de ed bd fc 1a 42 3e 45 7e d6 3d
       -0.115552045 -0.11614719 0.18955606 0.10473303
000180 f3 24 95 3e 55 8d 14 be d8 1d 8a 3e 7b c9 c0 be
       0.29129753 -0.14507039 0.26975894 -0.37653717
000190 cd 8e 55 be 23 6a 3d 3e 27 61 52 3d b6 4e c2 bd
       -0.20855255 0.18497519 0.051362183 -0.09487669
0001a0 07 1d 9b 3e 57 73 23 be 40 9a 02 3f f7 ec 37 3d
       0.30295584 -0.15961967 0.51016617 0.04490372
0001b0 2c bb 9e 3d 32 a1 89 bd e9 24 ac bd 50 94 0f 3e
       0.07750544 -0.06720199 -0.084054776 0.1402142
0001c0 a3 c7 57 3d 1a 74 47 3d 6d 6b ae bd fb c4 72 bd
       0.052680623 0.048694707 -0.085165836 -0.059269886
0001d0 64 33 e0 bc 13 8c f5 bc 5c 19 bb bd 48 e8 17 3d
       -0.027368255 -0.02997402 -0.09135696 0.037086755
0001e0 a4 09 26 bf 52 c5 c0 bd 18 27 0e bd d9 e6 23 3d
       -0.6485846 -0.09412636 -0.03470525 0.040015075
0001f0 52 5a a0 3d 56 e9 e9 bc 2c f3 07 3e b4 1b 10 3e
       0.07829727 -0.028553646 0.13276356 0.14073068
000200 29 e0 72 be 32 55 81 3f ec 5e 46 3e 56 43 e7 3c
       -0.23718323 1.0104125 0.19372147 0.02823035
000210 9c 7e d5 be 92 dd 66 3e 40 fa 3e bc 7c e9 d7 be
       -0.41698158 0.2254546 -0.011656344 -0.42170322
000220 ec 13 a0 bd 6a d6 81 be 90 ac 19 3f 3b ac bd 3e
       -0.078163 -0.25358897 0.60028934 0.37045464
000230 22 62 56 bd aa a9 5b bd aa 44 b3 bd 67 55 15 3e
       -0.05233968 -0.0536286 -0.08753331 0.1458336
000240 46 22 43 3d 39 ea 49 3e 76 69 7c 3e cd 7c 4f 3e
       0.047640108 0.19718255 0.24649605 0.20262451
000250 8a 33 a7 be d6 a6 27 bb ca 0f 90 bd e9 65 60 3c
       -0.3265651 -0.002558162 -0.070342615 0.013696172
000260 a2 04 eb be 46 e6 cc be f3 c5 e8 bd 72 10 5f bc
       -0.45901972 -0.40019435 -0.11365881 -0.013614761
000270 ce 3c 66 be bb 99 28 3e 5a f9 67 3e 11 a2 a6 bc
       -0.22484133 0.16464894 0.22653714 -0.020340951
000280 0e 1d 7d 3e f6 ba 8f be fc 9e 92 bb d0 25 07 be
       0.24718115 -0.28072327 -0.004474519 -0.13198018
000290 7d 6a b4 3d 92 31 da 3d a6 97 cf be 79 68 2c be
       0.088093735 0.10653986 -0.40545386 -0.16836728
0002a0 7c 9d ec 3e 92 cc fd bd 56 4e cd 3e 7d 70 56 be
       0.462139 -0.12392534 0.40098828 -0.20941348
0002b0 16 63 81 3e 87 27 93 3e d9 6a 95 bd f4 18 f3 be
       0.2527091 0.28741094 -0.0729577 -0.47479975
0002c0 cd 05 63 3d 3d b0 1c 3e df 1e 6f be 56 7b 74 bd
       0.055425454 0.15301605 -0.2335162 -0.059687935
0002d0 6b d6 94 bd 5c 40 1b be 73 a4 0f 3d f4 f3 4e be
       -0.072674595 -0.1516127 0.03506894 -0.20210248
0002e0 f3 2b 32 bf 1f 9e 52 3d ab d6 10 3e 88 dd 0a 3d
       -0.6959831 0.051420327 0.1414439 0.033902675
0002f0 50 6e b9 be 54 85 9f 3e dc ad 21 3e 7e 3c 63 3e
       -0.36216974 0.3115641 0.15788978 0.22191045
000300 f9 50 a1 3e 56 35 b3 be 78 95 16 be 27 0b 4b 3e
       0.3150709 -0.3500163 -0.14705455 0.19828473
000310 e6 01 09 bf 57 2c ca be 01 e7 71 3e dc 5a df bd
       -0.5351852 -0.39486954 0.23623277 -0.10906002
000320 5b 78 04 bc 98 2b 9a be f9 74 1a 3e 39 9a ab 3d
       -0.008085336 -0.30111384 0.15083684 0.08379025
000330 b8 40 5c 3b b0 40 8c be db 97 f0 be 3c 61 07 3e
       0.0033607911 -0.27393103 -0.46990857 0.13220686
000340 f3 4a db 3d 5a 8d 34 be 0b a3 27 3f 86 ac 24 3e
       0.10707655 -0.17632046 0.6548316 0.16081437
000350 23 c0 21 bf 43 7a 0d 3e a4 d0 2d 3d 9a 11 dd bd
       -0.631838 0.1381617 0.042435303 -0.10794373
000360 05 cd a0 be fb cf e9 bd 06 3e 0f 3f b0 fb c8 be
       -0.31406417 -0.11416622 0.55954015 -0.39254522
000370 b2 e0 ba 3d c7 80 6f be 33 40 84 3b 45 97 ef bd
       0.091248885 -0.23388968 0.0040359735 -0.11698774
000380 83 d0 d4 3d 78 9d 21 be 4b 4c b6 3e 56 7d db bd
       0.10391333 -0.15782726 0.35605082 -0.10717265
000390 82 41 f1 3c 5d 84 8d 3e 7e a2 88 3e fc 86 20 bd
       0.029450182 0.27640048 0.26686472 -0.03919123
0003a0 77 d3 38 3e 75 f1 81 be 9f 51 c4 3e e3 46 02 3c
       0.18049417 -0.2537953 0.38343522 0.007951471
0003b0 ea 9f f1 3d 41 a5 9c bd bf f4 3d be 96 d4 0f 3d
       0.11798079 -0.07648707 -0.18550394 0.035114847
0003c0 f3 c5 1b bf 19 f7 c5 bc a7 be da 3d 39 ba 6c bc
       -0.6084892 -0.024165677 0.10680895 -0.014448696
0003d0 15 7f 55 be 74 db 14 3d 8a 30 c3 bd f5 c0 e6 bd
       -0.20849259 0.0363421 -0.095307425 -0.112672724
0003e0 14 9b 69 be 48 22 0e be 49 18 ed bd 4b ac fa be
       -0.22813064 -0.13880265 -0.11576898 -0.48959574
0003f0 9a e4 10 3b e3 1b a9 be 3b 5f 62 bd 75 64 22 3e
       0.0022108913 -0.33029088 -0.0552666 0.15858634

sep_res_block_89/sep_conv_relu_bn_178/separable_conv2d_223/separable_conv2d/depthwise f4 [1, 3, 3, 64]
000000 85 52 65 bd c6 78 33 3f 99 3b 28 be 8b 72 95 3e
       -0.0559869 0.7010616 -0.16428985 0.29188952
000010 9a b8 22 be a0 43 f0 3c b6 d7 15 3e 28 e5 cb bc
       -0.15890732 0.029329121 0.14633068 -0.024889544
000020 ca b1 75 3e f5 e4 22 3d d2 91 b9 be ec 21 6d 3e
       0.23993602 0.03976913 -0.36244065 0.23157471
000030 92 99 bb 3d 2e 16 81 be 66 ca fe bc f4 69 59 3d
       0.091601506 -0.25212234 -0.03110237 0.05307956
000040 b4 2a ea 3d c2 7b c6 3e a6 c7 fd bd 08 47 8d be
       0.11433926 0.38766295 -0.123915955 -0.27593255
000050 42 9a 4c 3d 10 ce 0d be 91 d6 6b 3c 4c c1 5d 3a
       0.0499518 -0.13848138 0.014394418 0.00084592844
000060 be 03 e6 be 67 4b fc 3c fa e4 6f 3c 65 76 0f be
       -0.4492473 0.030797673 0.014641995 -0.14010008
000070 9b 66 9d 3d 18 aa 78 be db 9c 10 3e f9 32 fd be
       0.07685586 -0.24283636 0.14122336 -0.49452952
000080 30 87 e2 bc 24 bb 0e 3e 2a c6 e4 3d ca da a8 bd
       -0.027652353 0.13938576 0.11170609 -0.08244856
000090 d0 31 e8 be 7d 9a 8d 3e 54 16 80 3e 6d 0e 24 3e
       -0.45350504 0.27656928 0.25017035 0.16021128
0000a0 4b aa 6d be dd 4d 3c 3e 14 8b c6 3e 15 6e ea bd
       -0.23209493 0.18389077 0.38777983 -0.11446778
0000b0 fe 88 57 be 6b 75 d2 3d 5f d1 08 bd d8 e9 0f 3f
       -0.21048352 0.10276302 -0.033402797 0.5621619
0000c0 2e f5 67 3e 97 cb b8 3d 4b f8 67 bd 7c 5d a5 3d
       0.22652122 0.09023207 -0.056633275 0.08074471
0000d0 c8 a0 c3 3e 67 bb e9 bd c4 c5 45 bd eb 68 93 3e
       0.38208604 -0.11412697 -0.048284307 0.28790984
0000e0 03 0d 8b 3e cc 9b 97 be 6c 03 db bd 4c dd 01 3d
       0.27158365 -0.2961105 -0.10694012 0.031705186
0000f0 5e c7 ac 3d 00 83 69 3d c4 79 22 be eb 1d 20 3f
       0.08436464 0.057009697 -0.15866762 0.6254565
000100 93 df a7 bd 50 45 80 3e 62 13 8f be d0 ed 06 be
       -0.0819694 0.2505288 -0.27944475 -0.13176656
000110 20 17 31 3e 5a 5a a8 bd c0 59 a0 bd ba 2c e8 3c
       0.17293978 -0.08220358 -0.078296185 0.02834164
000120 58 d4 a0 3e 4e 2c dd 3a 46 f0 ed bd c5 23 c9 3e
       0.31412005 0.0016874166 -0.11618094 0.39285102
000130 9c 57 bf 3b 9a 2f 5a be e4 5c 0d be ad 2f b4 bd
       0.0058393013 -0.21307221 -0.13804966 -0.08798156
000140 bd 86 fa bc 3f 47 ed 3d c4 1e 29 be c4 5d 60 3d
       -0.030581826 0.11585855 -0.16515642 0.054776922
000150 48 15 fd bd 59 b1 76 3d 04 d4 a9 bc 18 40 3d be
       -0.12357575 0.060227726 -0.02073098 -0.18481481
000160 99 0a c7 be 2b 4c 92 bc 01 ea 1d 3e 0f 89 c1 be
       -0.38875273 -0.017858585 0.15421297 -0.3779988
000170 e6 9e 86 3e 30 2a 98 bd 67 10 ab 3c a1 14 16 bf
       0.26293105 -0.074299216 0.020881845 -0.5862523
000180 d5 9d 81 be 16 c0 0f 3d 47 11 14 be df 0a 62 bd
       -0.2531573 0.035095297 -0.14459716 -0.05518615
000190 27 1d 9b be 6f 8d ce 3d ec 5b 97 3d 91 7f da bd
       -0.3029568 0.1008557 0.073905796 -0.106688626
0001a0 ad 04 64 bd 26 51 01 bc 34 b7 c9 3e 78 89 3e bf
       -0.05566852 -0.007892882 0.39397585 -0.7442851
0001b0 76 b7 bc be 97 bd 14 3d cc 6a 00 3c f4 71 97 3e
       -0.3685872 0.03631362 0.007837962 0.29579127
0001c0 15 dd f6 3e 1f ae 75 3e f9 3b 4c be c3 a5 78 bd
       0.48215547 0.23992203 -0.19944753 -0.060704958
0001d0 d7 14 9b bc 88 cc 63 3e 72 16 46 3e 22 b2 f5 3e
       -0.018930836 0.22245991 0.193445 0.47987467
0001e0 52 82 65 bc a9 e1 ec 3e 53 0f 50 3e 65 99 ba 3c
       -0.014008122 0.46265915 0.20318346 0.022778222
0001f0 a4 db 0a be fb 8d fc 3d 57 1a fb 3e f9 cc 28 3e
       -0.13560349 0.12331768 0.49043533 0.16484441
000200 b6 a8 4a 3c e8 5b c4 3d 9a 04 1b bf 0b 78 6a 3e
       0.012369325 0.09587842 -0.60553896 0.22897355
000210 e0 18 6f be b1 5a cf 3e bd 55 4d bc cc 34 25 3c
       -0.23349333 0.4049888 -0.012532649 0.010083389
000220 39 cd 92 3e 4e 39 3a 3e bd 75 91 be 27 d7 cd be
       0.28672197 0.18185923 -0.2841014 -0.4020321
000230 6d 86 84 be 76 84 09 bf e0 72 9e be 61 ee 91 bd
       -0.2588381 -0.53717744 -0.30947018 -0.07125545
000240 16 5f bf 3d f6 b1 dc bc 7a 50 a4 3e 7c 06 56 3e
       0.09344308 -0.026940327 0.3209265 0.20900911
000250 8b d3 48 3e dd 9b f9 3d 96 fe f7 3d 5e c1 5c 3d
       0.19611947 0.12187932 0.12109105 0.053895347
000260 9e e3 86 3e 0a 6e 0b 3c 10 cf 2d bd 5d e3 87 bc
       0.26345533 0.008510122 -0.0424338 -0.016587907
000270 3e 35 a2 bc 16 c5 f3 3d b6 82 1b bf e8 8d 77 be
       -0.019800778 0.119028255 -0.60746324 -0.24175227
000280 d7 ed 08 3e 86 06 e9 3d 75 b0 d9 be d5 f8 ef be
       0.13371979 0.11378197 -0.4251744 -0.4686953
000290 f1 78 fb bd 6b 7d 3e bb 66 38 67 3c 2f c3 8c 3e
       -0.12278927 -0.0029066454 0.0141125675 0.27492663
0002a0 4e 78 66 3e 6e ab 36 be bb c2 79 3e 51 4f bd be
       0.2250683 -0.17838833 0.2439069 -0.36974576
0002b0 b4 b3 60 bd f5 25 e6 3d ca 9b b1 3e e5 64 7a 3e
       -0.05485888 0.112377085 0.3468917 0.2445255
0002c0 11 ab 07 3f 49 46 af 3d 8d 97 3b 3e e3 ac 10 3d
       0.529954 0.08558328 0.18319531 0.035321128
0002d0 4d 27 32 bf 09 4a ee 3e f0 6e 88 3d d9 53 04 bf
       -0.6959122 0.4654086 0.06661785 -0.5169044
0002e0 9e 99 4f be 65 88 80 bd 92 ad 39 bd 10 67 36 3e
       -0.20273444 -0.06276015 -0.045331545 0.17812753
0002f0 0b 6d c9 be 8b 9b 07 3d 54 7e fb 3d aa 5e 61 be
       -0.39341006 0.03310732 0.122799546 -0.22008768
000300 3c eb 60 bd f1 e7 c3 3e 4b ce b3 3d 55 d1 93 3d
       -0.054911837 0.38262895 0.08779582 0.07217661
000310 cb dc a6 3e a8 76 e3 bc 38 ab 4f 3c 81 5f 43 3c
       0.32590327 -0.02776654 0.012675099 0.011924625
000320 13 4c 12 3e 52 fb 09 be 88 ef 81 3e af 41 48 3e
       0.14286833 -0.13474777 0.2537806 0.19556306
000330 0d 15 61 3d 2b 0a b3 3c 18 14 d5 3c f0 c9 78 bb
       0.054951716 0.021855434 0.026010558 -0.003796216
000340 c9 18 0d be ec a5 f2 3b 51 ab 56 be 2f 69 df be
       -0.13778986 0.0074050333 -0.2096379 -0.43634936
000350 1f 14 2b be d8 29 0f be 17 67 2f 3d 76 57 0e be
       -0.16706894 -0.13980806 0.042822924 -0.13900551
000360 b4 b6 75 be 0c 6b 35 bd de 4d e5 bd 63 40 c7 be
       -0.23995477 -0.04429154 -0.111964926 -0.3891631
000370 60 d3 44 3e 8c 01 ad 3d df 4e b0 bc e2 27 85 be
       0.19221258 0.08447561 -0.021521984 -0.2600699
000380 a6 e1 e7 3d 39 fd d5 3e 18 c8 8f 3e 92 9b 91 3e
       0.11322336 0.41794756 0.28082347 0.28439003
000390 42 91 6b be 82 6f 47 be 6e 78 c6 bd 50 21 81 bd
       -0.2300463 -0.1947613 -0.09690939 -0.06305182
0003a0 11 44 08 3e 4e 1e c7 3d 79 59 5e be 02 91 1f 3e
       0.13307215 0.09722577 -0.21713819 0.1558266
0003b0 fd 42 c2 3e a2 df 6d 3d 93 c5 bb be f8 f2 c7 be
       0.37941733 0.0580746 -0.36674175 -0.39052558
0003c0 11 52 4a be 80 21 ec bd 04 9f e2 39 e4 4e d7 3d
       -0.19757868 -0.11529827 0.00043224555 0.10513094
0003d0 dc 60 09 3e d7 58 7c be ed 4c 96 bd 39 63 90 3e
       0.13415855 -0.24643265 -0.07338891 0.282007
0003e0 f7 b4 46 3d 4f 9b 5d 3e ee e9 7c 3e 90 a4 2f 3d
       0.048512425 0.21641277 0.24698612 0.04288155
0003f0 df cb 63 bb a7 08 1b be 63 18 72 3e ab e5 66 be
       -0.0034758968 -0.1514002 0.23642115 -0.22548549

sep_res_block_88/sep_conv_relu_bn_177/separable_conv2d_222/separable_conv2d/depthwise f4 [1, 3, 3, 64]
000000 a2 10 19 be 2d 40 fa 3e 3e 7e 08 bd 04 e3 e2 be
       -0.14947751 0.48877087 -0.03332352 -0.44313824
000010 69 26 d2 bd ff f0 f3 3d 31 4d 25 3e 0f 6d 19 be
       -0.102612324 0.11911201 0.16142727 -0.14983009
000020 e5 d1 c9 be 41 7b 93 3d 50 46 c2 3e 82 07 78 3d
       -0.3941795 0.07201243 0.3794427 0.060554035
000030 22 78 65 bd 20 a6 23 3e cc e3 61 be ac 69 aa bd
       -0.05602277 0.1598134 -0.22059554 -0.083209366
000040 2a a9 b5 bd 4a 9e 28 be d8 fe 2f 3e 1b f1 c1 3d
       -0.08870156 -0.16466632 0.17187059 0.09469815
000050 dd 52 c4 3e ce cc 51 bc 74 1d 30 3e b8 89 51 3d
       0.3834447 -0.012805177 0.17198735 0.05115673
000060 ea 80 00 bf 95 cc da be e8 f0 bb 3e a0 7a 85 3e
       -0.5019671 -0.4273421 0.36707234 0.26070118
000070 b6 19 b9 3d 0f 65 fd 3e 80 86 c7 3e a3 39 f2 3e
       0.09038107 0.49491164 0.38969803 0.47309598
000080 24 35 a5 bd fa 1f e2 3b d4 60 01 be fa b7 6b be
       -0.080667764 0.0069007846 -0.12634593 -0.230194
000090 cc d6 8e bd 4e 17 54 be 47 5d 3a 3e b2 60 a0 3e
       -0.06974563 -0.20712015 0.18199645 0.31323773
0000a0 ec ba 1e bf e9 7e e2 bd 88 43 11 be 3f 5c 09 be
       -0.6200397 -0.110593624 -0.14185917 -0.13414095
0000b0 6a 1c 79 3d d3 0c 9f 3e eb 91 65 3c 3f 87 b6 3e
       0.060818113 0.31064472 0.01401184 0.3565006
0000c0 ac 4a b5 bd 9b b6 3b 3c de 05 b2 be 09 1d 3c 3f
       -0.08852133 0.011457111 -0.347701 0.73481804
0000d0 2e 2e 34 3e c5 3b 70 be 1d 54 2c 3e 12 86 dc bc
       0.17595741 -0.234603 0.16828962 -0.026919398
0000e0 f9 c8 08 bf 99 10 e1 3e 74 b7 82 3b d9 7e 37 bf
       -0.5343166 0.43957976 0.0039891545 -0.7167793
0000f0 4d 49 65 bd 73 00 cb be 81 53 90 3c 92 c9 d5 3d
       -0.05597811 -0.3964878 0.017617943 0.10438837
000100 59 29 f9 3d 76 b7 b2 bd 22 4b db 3d 73 e6 90 3e
       0.121660896 -0.08726399 0.1070769 0.2830082
000110 ba 26 5c 3e 77 a5 4e 3e a3 e8 c8 3e 83 70 00 3f
       0.21499148 0.20180307 0.39239988 0.5017168
000120 8f e4 73 be e8 e6 7b be 4b b0 90 3d 8b d5 59 be
       -0.23817657 -0.24599802 0.07064875 -0.21272866
000130 94 35 ce 3e 96 fc 20 3e 4d ba 61 be 80 b4 2e be
       0.40275252 0.15721354 -0.22043724 -0.17061043
000140 f3 be e6 bd c2 88 62 bd 59 30 06 3d 2e b5 9c 3e
       -0.112668894 -0.055306204 0.03276095 0.3060698
000150 99 7f ba bd 98 ac e4 3e 61 77 00 bf ab e0 04 3f
       -0.091063686 0.4466293 -0.5018216 0.51905316
000160 91 58 8a bd 81 50 86 be d6 f5 49 3e d6 96 06 bf
       -0.06755174 -0.26233295 0.19722685 -0.5257391
000170 52 64 44 bf 4a 8e 37 be 8b 1d 52 3e 27 6b a2 3e
       -0.76715577 -0.17925373 0.20519082 0.31722376
000180 3b 9c 98 bc aa 78 77 3e 5f 9c 0a bf 96 e3 e7 be
       -0.018629184 0.24167123 -0.54144853 -0.45290822
000190 0b 9b 94 3e fc 37 44 bd d6 5d f2 3d 17 df 87 3e
       0.29024538 -0.047904953 0.11834304 0.26537392
0001a0 66 ad 9a be ec 7c 38 bd 52 24 13 3e 3e 68 52 be
       -0.30210418 -0.04504101 0.14369324 -0.20547578
0001b0 cc 62 02 3e b4 13 43 be 83 88 02 be b1 f8 37 3e
       0.12733 -0.19050485 -0.12747388 0.17965962
0001c0 0b ed 89 3e 11 dc 0c bd 96 e8 2a be d6 0f 16 3e
       0.26938662 -0.03438956 -0.16690287 0.14654478
0001d0 c1 57 98 3e f2 7a 5c be 2a c3 85 bd fe 69 ac bb
       0.2975445 -0.21531275 -0.06531365 -0.0052616587
0001e0 74 4b b0 bd be a2 c7 3e ac 76 b3 3d 21 a3 98 be
       -0.086081415 0.3899135 0.08762869 -0.29811957
0001f0 31 c7 a8 be 00 ec ee bd c2 71 08 3e 5f 62 9a 3d
       -0.3296447 -0.11666107 0.13324645 0.07538294
000200 61 54 c8 3c 0e 6d 10 be 92 23 97 3d fa b0 13 be
       0.024454297 -0.14104101 0.073798314 -0.1442298
000210 8f 76 48 be cd 70 4b 3f 29 b8 ca 3e 98 a3 05 bf
       -0.19576477 0.79468995 0.39593628 -0.5220275
000220 3d a0 a4 3e 76 a9 42 bd fb 4d 9d be 48 21 8a be
       0.32153502 -0.04752489 -0.30723557 -0.26978517
000230 8c 85 20 be 81 e1 aa 3e d8 7b 8d 3e 71 db d4 bd
       -0.15675944 0.3337517 0.27633548 -0.103934176
000240 eb d5 25 bd ca 18 1e bf b6 e0 d1 3d 4b bd 93 be
       -0.04048721 -0.61756575 0.10247938 -0.28855357
000250 10 7b 42 3d 5f 9c 0c be db c9 d0 3e 31 d2 0b 3f
       0.047480643 -0.13731526 0.40779004 0.546176
000260 72 20 3e be 54 07 4e be 70 9c c2 3e 6a 1e eb 3e
       -0.18567064 -0.20119983 0.38009977 0.45921642
000270 a1 42 bf be 48 f3 ea 3d bd f6 cf 3e 76 9a da 3e
       -0.3735552 0.114721835 0.40617934 0.4269597
000280 c4 32 0f 3e 35 9b 85 3e b6 fe 73 3c ad 0f e7 bc
       0.1398421 0.26094976 0.014892271 -0.028205717
000290 19 25 18 3d ba bb 82 3d ce a7 4a ba f4 b2 89 3c
       0.037144754 0.06383462 -0.00077306933 0.016808964
0002a0 c3 15 a3 be 68 61 0c be 2e 29 73 be 1b 92 2e be
       -0.3185254 -0.13709033 -0.23746178 -0.17047922
0002b0 01 ba 17 be 1e b4 ed bd 29 14 f5 bc ef 1a 8f 3d
       -0.14817049 -0.1160662 -0.02991684 0.06987559
0002c0 8e aa 8e bd 87 40 fa bd 9d 64 8a 3d 4b 7c 4f 3f
       -0.069661245 -0.12219339 0.06757472 0.8104903
0002d0 4f 38 a1 be 85 9e 01 3e a1 31 e0 3d 66 38 2d bf
       -0.31488273 0.12658127 0.10946966 -0.6766418
0002e0 db 6c a4 be 2c 0f d0 3d 78 d2 44 bd fb d4 e9 3e
       -0.321143 0.10159144 -0.04805228 0.45670304
0002f0 83 af 4b 3e f4 6f 66 3e ad 83 e5 3d fd 63 5b 3d
       0.19891171 0.22503644 0.11206756 0.053562153
000300 47 2c 39 bf 9e b0 2e 3c d9 c5 6c bd 95 9a fc be
       -0.72333187 0.010662226 -0.05780587 -0.49336687
000310 2e 11 91 be b9 4b 30 3c 6b 7e 26 3e 81 fb 45 bd
       -0.2833342 0.010760241 0.16259162 -0.048335556
000320 61 cc 6c 3e 9a e3 40 bc d7 ae a3 bd c4 b8 77 3e
       0.2312484 -0.011773014 -0.079923324 0.24191576
000330 4a 49 32 be eb ae 9c bd 94 54 38 bd dd 7a 0f be
       -0.1741077 -0.076505505 -0.045002535 -0.14011712
000340 90 48 c0 3e 90 e8 9e be 50 dd 7f be 26 32 2d be
       0.3755536 -0.31036806 -0.24986768 -0.16913661
000350 4f ab a1 3e 91 14 18 3e c6 1f 88 be f8 4e 92 be
       0.3157601 0.14851595 -0.2658674 -0.28575873
000360 02 ab b4 bd e0 61 f5 be 5f 2a 20 3e a1 1b 57 be
       -0.0882168 -0.47926235 0.15641163 -0.21006633
000370 07 e1 bf 3e 86 f4 13 3f 1c 50 9e bc eb 51 fb 3d
       0.3747637 0.5779499 -0.019325309 0.12271484
000380 db a5 da bd 06 fa 84 be bb 8c b5 3d 71 a1 98 be
       -0.10676166 -0.25972003 0.08864733 -0.2981067
000390 03 8e 63 bd de 90 85 3b ab 9d e2 3e 79 a0 87 3e
       -0.055555355 0.0040761074 0.44260916 0.26489618
0003a0 7a 8e 09 bf 19 a0 39 3d 47 1a 51 3d 51 43 9c be
       -0.53733027 0.045318697 0.05105045 -0.30520108
0003b0 ef 0d 35 3e 0a f1 5f 3e db 31 ed bb 7e de 87 3e
       0.17681096 0.21869293 -0.0072386093 0.26536936
0003c0 96 fa c8 be d7 04 d3 bd b4 61 45 bd 4b cc 0a 3e
       -0.39253682 -0.103036575 -0.04818888 0.13554494
0003d0 a0 0d 2a 3f f7 96 8c be 68 e9 c1 3e 12 cf 8c be
       0.6642704 -0.27458927 0.37873387 -0.27501732
0003e0 e1 1f 89 be 72 7f 3e 3e 85 5b c6 3d db f6 ff bd
       -0.26782134 0.18603304 0.09685425 -0.12498256
0003f0 43 23 40 bd 34 8f 84 be 1b 35 71 3c c2 99 63 be
       -0.04690863 -0.25890505 0.014722134 -0.22226623

sep_res_block_88/sep_conv_relu_bn_177/separable_conv2d_222/BiasAdd/ReadVariableOp f4 [64]
000000 ee 7a 88 be ad 6f a8 3d 53 7d 31 3e 04 27 77 3c
       -0.26656288 0.082244255 0.17332964 0.015084986
000010 7f 6f 86 bd da fd 1c 3d 0c 99 ee 3c 75 45 5d be
       -0.06564235 0.03832803 0.029125713 -0.21608527
000020 9d 08 5e be 9e e3 79 3c bd 64 1b 3e b9 da e0 be
       -0.21682973 0.015252022 0.15175147 -0.43916872
000030 31 48 e4 3e 51 c3 d7 bd 38 eb 04 be cb ba 0f be
       0.44586328 -0.105353005 -0.12980354 -0.140361
000040 d3 73 b3 bd 55 89 2e 3e 54 42 47 be 4b 39 c0 bd
       -0.08762326 0.17044576 -0.19458896 -0.09385928
000050 b8 49 d4 3d 13 6c 02 3d f8 45 aa be 08 6e 9a 3e
       0.10365623 0.03184135 -0.33256507 0.30162072
000060 a5 9e 5c 3d f8 08 24 3d 2e 7d 43 be 29 be 9f be
       0.053862233 0.040047616 -0.19090721 -0.31199768
000070 86 15 23 be f8 4b b2 be 3d 70 00 3e 24 b9 8f 3e
       -0.1592618 -0.34823585 0.12542816 0.2807094
000080 db 2e 9b 3c 74 92 01 bf 2e 50 0e be 21 f8 0b be
       0.01894324 -0.50614095 -0.13897774 -0.13668872
000090 e0 0d 23 bc 3f 02 b1 3d 2f 1c 1e bf 98 7e 30 3e
       -0.0099520385 0.086430065 -0.61761755 0.17235792
0000a0 d1 a6 4a 3d 7c 1c 00 be 2a 46 af 3e 6b de 27 3e
       0.049475495 -0.12510866 0.34233218 0.1639344
0000b0 6f ca 97 3e 85 02 b3 bd d8 ce 47 be 0e 22 4a 3e
       0.29646632 -0.08740715 -0.19512498 0.19739553
0000c0 8a c7 1c be 7a bc a4 be cc 3d 6b 3d a6 0d 46 be
       -0.15310493 -0.32175046 0.05743198 -0.19341144
0000d0 e8 51 e2 be 1b 28 81 be 5f 2f e1 ba f3 34 e6 bd
       -0.44203115 -0.2522591 -0.0017180255 -0.11240568
0000e0 af 73 b8 bd b4 2d e1 3e 6e 5d 90 3e bb 2d cc bd
       -0.0900644 0.4398018 0.2819628 -0.0996966
0000f0 d0 4d 16 bc 24 2b 09 bd 64 a3 39 3c c9 e5 98 bd
       -0.009173825 -0.033488408 0.011330459 -0.07465703

sep_res_block_89/sep_conv_relu_bn_179/separable_conv2d_224/BiasAdd/ReadVariableOp f4 [64]
000000 dc b8 5d be 60 dc d8 bd b4 1c 11 be 2b 12 3e bd
       -0.2165255 -0.10588908 -0.14171106 -0.046404045
000010 c5 9b 17 be 29 86 7d be fb 5b 1f be 7e 5a 08 be
       -0.14805515 -0.2475821 -0.15562432 -0.1331577
000020 45 3b 09 be 85 aa c8 be ca c4 2f be f8 c8 bd bc
       -0.13401516 -0.39192596 -0.17164913 -0.023167118
000030 0d 9c b5 3c 04 04 08 bd 9f e0 aa bd 25 21 ba bb
       0.022169137 -0.033206955 -0.08343624 -0.0056802207
000040 6e 0b 93 bd c3 0c c9 3c 2e 7f 7f bd b7 37 af be
       -0.071799144 0.024542218 -0.062377147 -0.34222195
000050 1b 86 7c be 1c 54 17 be 75 cb c2 bd 7d c3 47 be
       -0.24660532 -0.14778179 -0.095114626 -0.19508167
000060 2d 04 d3 3d 5b 2d ab bd 51 aa 01 bd bd 28 53 be
       0.10303531 -0.0835826 -0.031656567 -0.20621009
000070 ee 8d ce be 03 55 97 be 8b 6e c2 bd eb e2 6c bd
       -0.4034266 -0.29557046 -0.09493741 -0.057833593
000080 03 c7 2f be 19 a5 93 bd c8 e5 0a be 21 15 ea be
       -0.1716576 -0.07209224 -0.13564217 -0.45719245
000090 f0 dd d9 bd eb 0b 83 be 8e 93 ee bd 78 fe 1f be
       -0.10638034 -0.2559503 -0.116492376 -0.15624416
0000a0 22 c8 6d be 31 87 a8 be 9c 18 51 be 4f 9b 2d be
       -0.23220876 -0.32915643 -0.20419544 -0.16953777
0000b0 51 ec fa bd b6 82 6d be 61 92 26 be de 54 47 be
       -0.12252105 -0.23194394 -0.16266777 -0.19465968
0000c0 04 55 7f bd ca 71 bf 3c b3 dc 17 bd cb 51 67 be
       -0.062336937 0.023369689 -0.03707571 -0.22589795
0000d0 62 ad 1b bc 59 2f 1d 3d f1 70 4f be 0d f8 6a be
       -0.009501787 0.038375232 -0.20257927 -0.22946186
0000e0 92 35 82 be f2 be 74 bd e7 d9 c7 3d e0 e8 19 be
       -0.25431496 -0.059752412 0.097583584 -0.15030241
0000f0 f3 4d 2f be f9 f3 73 be 0a d3 04 bd 60 51 5a 3d
       -0.17119579 -0.23823537 -0.032427825 0.05330026

separable_conv2d_220/BiasAdd/ReadVariableOp f4 [64]
000000 99 d5 9b 3c 15 78 0f 3d a7 e0 38 bd 8d 6a e9 bd
       0.01902275 0.03502663 -0.04513612 -0.11397276
000010 a6 75 27 3e d3 26 fd 3d 07 71 94 3d 50 84 ea bd
       0.16353473 0.12360921 0.07248121 -0.11451018
000020 2b ac 84 bd f2 a2 99 bd b2 f4 a0 3e 9b 56 ba bd
       -0.06478151 -0.075017825 0.31436688 -0.0909855
000030 3b 05 ba bd ba 06 49 3e 35 01 7c 3d a1 d0 50 3e
       -0.09083029 0.19631472 0.06152459 0.20392086
000040 21 35 aa bd f0 32 86 bd b4 ac 0f bc 49 59 30 be
       -0.08310915 -0.06552684 -0.008769203 -0.1722156
000050 da c5 c4 3c 29 ae 5b 3d fc 1e 49 be 72 ff 5b 3d
       0.024020124 0.05363289 -0.19640726 0.05371041
000060 f6 8a 47 3e ab ab 07 be b9 8e 27 3e 83 48 00 bf
       0.19486603 -0.1324908 0.16363038 -0.50110644
000070 33 a5 23 be 11 22 ba 3d 29 33 e5 bd 5c 9b e7 bd
       -0.15980987 0.09088529 -0.11191399 -0.11308929
000080 e8 79 40 bf 00 a6 43 3d 2f 81 ba 3d 5f b8 c9 bd
       -0.75186014 0.04776573 0.09106671 -0.09849619
000090 c2 5e 5f 3e d0 3f 4d bd c4 13 b3 3d c9 46 1f 3e
       0.21813491 -0.050109684 0.08744004 0.15554346
0000a0 40 d2 f4 bd 27 5a a1 be b2 49 fd 3d 56 a2 56 3d
       -0.119541645 -0.31514093 0.12367572 0.05240091
0000b0 aa 08 e9 3b 06 5f c5 3d f7 68 6f bd 27 60 cc 3c
       0.0071116285 0.09637265 -0.05844971 0.024948193
0000c0 fc 21 1c be b0 36 30 3e b1 fb ec 3d 0f f6 bd 3e
       -0.15247339 0.17208362 0.11571444 0.3710179
0000d0 13 d2 d9 3d 53 8f ed bd 3f b9 5a bd 9f e9 83 be
       0.106357716 -0.115996026 -0.05339932 -0.25764176
0000e0 ab 84 9c 3e 94 b2 9b 3e 2a 12 4b bc 02 e8 82 3d
       0.30569968 0.30409682 -0.012394467 0.06391908
0000f0 88 e4 de bc 4c 4b d6 bc f0 32 a3 3d f4 14 4f bd
       -0.027208582 -0.026158951 0.079687 -0.05055709

separable_conv2d_220/separable_conv2d/depthwise1 f4 [1, 3, 3, 1]
000000 02 d9 33 3f a8 e1 bd 3e 1e bc 33 be 42 d3 cd 3e
       0.70253 0.37086225 -0.1755223 0.4020024
000010 f8 c9 2d be 7e d4 16 be 6e 7a 17 bf 9c 5f 03 bc
       -0.16971576 -0.14729497 -0.5917119 -0.0080184005
000020 60 0a 8c be
       -0.27351665

sep_res_block_89/sep_conv_relu_bn_179/separable_conv2d_224/separable_conv2d f4 [64]
000000 00 00 00 00 00 00 00 00 00 00 00 00 00 00 00 00
       0.0 0.0 0.0 0.0
000010 00 00 00 00 00 00 00 00 00 00 00 00 00 00 00 00
       0.0 0.0 0.0 0.0
000020 00 00 00 00 00 00 00 00 00 00 00 00 00 00 00 00
       0.0 0.0 0.0 0.0
000030 00 00 00 00 00 00 00 00 00 00 00 00 00 00 00 00
       0.0 0.0 0.0 0.0
000040 00 00 00 00 00 00 00 00 00 00 00 00 00 00 00 00
       0.0 0.0 0.0 0.0
000050 00 00 00 00 00 00 00 00 00 00 00 00 00 00 00 00
       0.0 0.0 0.0 0.0
000060 00 00 00 00 00 00 00 00 00 00 00 00 00 00 00 00
       0.0 0.0 0.0 0.0
000070 00 00 00 00 00 00 00 00 00 00 00 00 00 00 00 00
       0.0 0.0 0.0 0.0
000080 00 00 00 00 00 00 00 00 00 00 00 00 00 00 00 00
       0.0 0.0 0.0 0.0
000090 00 00 00 00 00 00 00 00 00 00 00 00 00 00 00 00
       0.0 0.0 0.0 0.0
0000a0 00 00 00 00 00 00 00 00 00 00 00 00 00 00 00 00
       0.0 0.0 0.0 0.0
0000b0 00 00 00 00 00 00 00 00 00 00 00 00 00 00 00 00
       0.0 0.0 0.0 0.0
0000c0 00 00 00 00 00 00 00 00 00 00 00 00 00 00 00 00
       0.0 0.0 0.0 0.0
0000d0 00 00 00 00 00 00 00 00 00 00 00 00 00 00 00 00
       0.0 0.0 0.0 0.0
0000e0 00 00 00 00 00 00 00 00 00 00 00 00 00 00 00 00
       0.0 0.0 0.0 0.0
0000f0 00 00 00 00 00 00 00 00 00 00 00 00 00 00 00 00
       0.0 0.0 0.0 0.0

separable_conv2d_220/separable_conv2d f4 [64, 1, 1, 1]
000000 9e ce 2f be fa 86 48 3d 09 0a 3d be 61 71 8d be
       -0.17168662 0.04895685 -0.1846086 -0.27625564
000010 16 67 fd 3e 06 bc a4 ba b8 78 18 3e c5 6a 12 3e
       0.4949271 -0.0012568242 0.148898 0.14298542
000020 39 82 d3 bc 74 49 ab 3e 56 d5 2b 3d 36 1b dd 3c
       -0.025818931 0.33454478 0.0419515 0.026990514
000030 9a 2c 6b be 41 59 57 be a0 09 11 3f fc 5d 4b 3e
       -0.22966233 -0.21030141 0.5665531 0.19860071
000040 a7 bc 4d 3f d9 58 5b 3e e7 73 2e be 5d 66 99 3b
       0.80365986 0.21420611 -0.170364 0.004681392
000050 fb 1a 0e 3f 4c ca 94 3e 32 b5 bd 3d a6 32 b0 3c
       0.5550992 0.2906059 0.09263076 0.021508526
000060 9c 37 d6 3c 32 d0 bc 3e 75 9e ab be 42 42 24 be
       0.026149563 0.3687759 -0.3351933 -0.160409
000070 52 74 e7 bd 3d 23 8b 3e d9 38 22 3e 97 22 bf bd
       -0.11301483 0.27175322 0.15841998 -0.09332769
000080 e7 f7 2b 3e de e5 93 3d d2 e2 2e 3e e7 d3 40 3e
       0.16793786 0.07221578 0.17078713 0.18830834
000090 a4 85 c4 bb 85 1c b7 3e fd 48 df bd 2f 2e 51 3e
       -0.0059973765 0.35763946 -0.10902593 0.20427774
0000a0 e9 dc 34 3f 07 bb b8 3e b6 c7 0d bd 46 ca e1 3d
       0.7064958 0.3608019 -0.034614287 0.11024909
0000b0 86 a1 0d 3c 2b 1c 4d 3d 66 07 c3 bd 06 0d 60 bc
       0.008644467 0.05007569 -0.095228955 -0.01367498
0000c0 73 0f d0 bd b6 17 ba be c8 cd 33 bd fe 85 b3 bd
       -0.10159197 -0.36346215 -0.04389742 -0.08765791
0000d0 10 ea 6d 3c a7 7c b3 3d 99 e0 58 be 8c eb 0a bb
       0.014521137 0.0876401 -0.21179427 -0.0021197526
0000e0 43 e1 a9 3e d6 e6 a8 be e9 1f bb be 7c f5 d2 3b
       0.33179674 -0.32988614 -0.36547783 0.0064379554
0000f0 10 fe 7f 3e 3b c7 8c 3d 44 cc 03 be 11 77 a4 bd
       0.24999261 0.06873938 -0.1287089 -0.080305226
